…
Paper got 67 test errors on big model, 146 on small, and 74 on distilled small.
My small model has higher test accuracy than the regularized large model.

Question: Can I multiply the loss by T^2 instead of multiplying the actual gradients? 
	  This way I can use only one optimizer and handle the temperature factor in the loss function.

MNIST_Teacher
---------------
Model: "sequential_2"
_________________________________________________________________
Layer (type)                 Output Shape              Param #   
=================================================================
flatten_2 (Flatten)          (None, 784)               0         
_________________________________________________________________
dropout_4 (Dropout)          (None, 784)               0         
_________________________________________________________________
dense_4 (Dense)              (None, 128)               100480    
_________________________________________________________________
dropout_5 (Dropout)          (None, 128)               0         
_________________________________________________________________
dense_5 (Dense)              (None, 128)               16512     
_________________________________________________________________
dropout_6 (Dropout)          (None, 128)               0         
_________________________________________________________________
dense_6 (Dense)              (None, 10)                1290      
_________________________________________________________________
activation_2 (Activation)    (None, 10)                0         
=================================================================
Total params: 118,282
Trainable params: 118,282
Non-trainable params: 0

ERRORS: 231 (97.7% acc)


MNIST_STUDENT
---------------
Model: "sequential_1"
_________________________________________________________________
Layer (type)                 Output Shape              Param #   
=================================================================
flatten_1 (Flatten)          (None, 784)               0         
_________________________________________________________________
dense_1 (Dense)              (None, 32)                25120     
_________________________________________________________________
dense_2 (Dense)              (None, 32)                1056      
_________________________________________________________________
dense_3 (Dense)              (None, 10)                330       
_________________________________________________________________
activation_1 (Activation)    (None, 10)                0         
=================================================================
Total params: 26,506
Trainable params: 26,506
Non-trainable params: 0

ERRORS: 727 (92.8% acc)
DISTILLED ERRORS: 275 (97.25% accuracy)


CIFAR10 TEACHER
-------------------
Model: "sequential_1"
_________________________________________________________________
Layer (type)                 Output Shape              Param #   
=================================================================
conv2d_1 (Conv2D)            (None, 32, 32, 32)        896       
_________________________________________________________________
activation_1 (Activation)    (None, 32, 32, 32)        0         
_________________________________________________________________
conv2d_2 (Conv2D)            (None, 30, 30, 32)        9248      
_________________________________________________________________
activation_2 (Activation)    (None, 30, 30, 32)        0         
_________________________________________________________________
max_pooling2d_1 (MaxPooling2 (None, 15, 15, 32)        0         
_________________________________________________________________
dropout_1 (Dropout)          (None, 15, 15, 32)        0         
_________________________________________________________________
conv2d_3 (Conv2D)            (None, 15, 15, 64)        18496     
_________________________________________________________________
activation_3 (Activation)    (None, 15, 15, 64)        0         
_________________________________________________________________
conv2d_4 (Conv2D)            (None, 13, 13, 64)        36928     
_________________________________________________________________
activation_4 (Activation)    (None, 13, 13, 64)        0         
_________________________________________________________________
max_pooling2d_2 (MaxPooling2 (None, 6, 6, 64)          0         
_________________________________________________________________
dropout_2 (Dropout)          (None, 6, 6, 64)          0         
_________________________________________________________________
flatten_1 (Flatten)          (None, 2304)              0         
_________________________________________________________________
dense_1 (Dense)              (None, 512)               1180160   
_________________________________________________________________
activation_5 (Activation)    (None, 512)               0         
_________________________________________________________________
dropout_3 (Dropout)          (None, 512)               0         
_________________________________________________________________
dense_2 (Dense)              (None, 10)                5130      
_________________________________________________________________
activation_6 (Activation)    (None, 10)                0         
=================================================================
Total params: 1,250,858
Trainable params: 1,250,858
Non-trainable params: 0

Errors:  2350.9997129440308
Accuracy:  76.49000287055969 %


CIFAR10 STUDENT
---------------
Model: "sequential_1"
_________________________________________________________________
Layer (type)                 Output Shape              Param #   
=================================================================
conv2d_1 (Conv2D)            (None, 32, 32, 8)         224       
_________________________________________________________________
activation_1 (Activation)    (None, 32, 32, 8)         0         
_________________________________________________________________
conv2d_2 (Conv2D)            (None, 30, 30, 8)         584       
_________________________________________________________________
activation_2 (Activation)    (None, 30, 30, 8)         0         
_________________________________________________________________
max_pooling2d_1 (MaxPooling2 (None, 15, 15, 8)         0         
_________________________________________________________________
conv2d_3 (Conv2D)            (None, 15, 15, 16)        1168      
_________________________________________________________________
activation_3 (Activation)    (None, 15, 15, 16)        0         
_________________________________________________________________
conv2d_4 (Conv2D)            (None, 13, 13, 16)        2320      
_________________________________________________________________
activation_4 (Activation)    (None, 13, 13, 16)        0         
_________________________________________________________________
max_pooling2d_2 (MaxPooling2 (None, 6, 6, 16)          0         
_________________________________________________________________
flatten_1 (Flatten)          (None, 576)               0         
_________________________________________________________________
dense_1 (Dense)              (None, 128)               73856     
_________________________________________________________________
activation_5 (Activation)    (None, 128)               0         
_________________________________________________________________
dense_2 (Dense)              (None, 10)                1290      
_________________________________________________________________
activation_6 (Activation)    (None, 10)                0         
=================================================================
Total params: 79,442
Trainable params: 79,442
Non-trainable params: 0
_________________________________________________________________
Errors:  3252.999782562256
Accuracy:  67.47000217437744 %